…
e=64, num_hidden_layers=2, hidden_act='gelu', num_attention_heads=1, attention_probs_dropout_prob=0.5, hidden_dropout_prob=0.5, initializer_range=0.02, c=7, alpha=0.3, ipcm=True, ipcm_lambda=0.001, ipcm_tau=0.2, ipcm_window_size=20, ipcm_neg_mode='sfns', ipcm_sfns_candidates=20, ipcm_sfns_rho=0.95, ipcm_no_gate=False, ipcm_high_freq_only=False, ipcm_gate=True, cuda_condition=True, data_file='./data/Beauty.txt', item_size=12102, checkpoint_path='output/BSARec_iPCMv3_SFNS_Beauty_final.pt', same_target_path='./data/Beauty_same_target.npy')
2026-07-08 11:33:57,844 - BSARecModel(
  (item_embeddings): Embedding(12102, 64, padding_idx=0)
  (position_embeddings): Embedding(50, 64)
  (LayerNorm): LayerNorm()
  (dropout): Dropout(p=0.5, inplace=False)
  (item_encoder): BSARecEncoder(
    (blocks): ModuleList(
      (0-1): 2 x BSARecBlock(
        (layer): BSARecLayer(
          (filter_layer): FrequencyLayer(
            (out_dropout): Dropout(p=0.5, inplace=False)
            (LayerNorm): LayerNorm()
          )
          (attention_layer): MultiHeadAttention(
            (query): Linear(in_features=64, out_features=64, bias=True)
            (key): Linear(in_features=64, out_features=64, bias=True)
            (value): Linear(in_features=64, out_features=64, bias=True)
            (softmax): Softmax(dim=-1)
            (attn_dropout): Dropout(p=0.5, inplace=False)
            (dense): Linear(in_features=64, out_features=64, bias=True)
            (LayerNorm): LayerNorm((64,), eps=1e-12, elementwise_affine=True, bias=True)
            (out_dropout): Dropout(p=0.5, inplace=False)
          )
        )
        (feed_forward): FeedForward(
          (dense_1): Linear(in_features=64, out_features=256, bias=True)
          (dense_2): Linear(in_features=256, out_features=64, bias=True)
          (LayerNorm): LayerNorm()
          (dropout): Dropout(p=0.5, inplace=False)
        )
      )
    )
  )
)
2026-07-08 11:33:59,266 - Total Parameters: 878208
2026-07-08 11:34:22,033 - {'epoch': 0, 'rec_loss': '8.8567'}
2026-07-08 11:34:27,632 - {'Epoch': 0, 'HR@5': '0.0114', 'NDCG@5': '0.0073', 'HR@10': '0.0220', 'NDCG@10': '0.0107', 'HR@20': '0.0357', 'NDCG@20': '0.0142'}
2026-07-08 11:34:27,634 - Validation score increased.  Saving model ...
…
